Cargando embedding inicial...
_________________________________________________________________
Layer (type)                 Output Shape              Param #   
=================================================================
embedding_1 (Embedding)      (None, 11, 300)           17084100  
_________________________________________________________________
flatten_1 (Flatten)          (None, 3300)              0         
_________________________________________________________________
dense_1 (Dense)              (None, 300)               990300    
_________________________________________________________________
activation_1 (Activation)    (None, 300)               0         
_________________________________________________________________
dense_2 (Dense)              (None, 9)                 2709      
_________________________________________________________________
activation_2 (Activation)    (None, 9)                 0         
=================================================================
Total params: 18,077,109.0
Trainable params: 18,077,109.0
Non-trainable params: 0.0
_________________________________________________________________
Cargando casos de entrenamiento...
Cargando casos de prueba...
Entrenando...
Train on 382982 samples, validate on 82232 samples
Epoch 1/200
39s - loss: 0.5818 - acc: 0.7485 - val_loss: 1.1108 - val_acc: 0.5864
…
