supertag_reducido
20
Cargando casos de entrenamiento...
Cargando casos de prueba...
Compilando red...
_________________________________________________________________
Layer (type)                 Output Shape              Param #   
=================================================================
embedding_1 (Embedding)      (None, 11, 150)           8542050   
_________________________________________________________________
flatten_1 (Flatten)          (None, 1650)              0         
_________________________________________________________________
dense_1 (Dense)              (None, 300)               495300    
_________________________________________________________________
activation_1 (Activation)    (None, 300)               0         
_________________________________________________________________
dense_2 (Dense)              (None, 643)               193543    
_________________________________________________________________
activation_2 (Activation)    (None, 643)               0         
=================================================================
Total params: 9,230,893.0
Trainable params: 9,230,893.0
Non-trainable params: 0.0
_________________________________________________________________
Entrenando...
Train on 192741 samples, validate on 42171 samples
Epoch 1/20
15s - loss: 0.7869 - acc: 0.8123 - val_loss: 0.5190 - val_acc: 0.8701
Epoch 2/20
15s - loss: 0.3426 - acc: 0.9087 - val_loss: 0.4419 - val_acc: 0.8896
…
