Cargando casos de entrenamiento...
Cargando casos de prueba...
Compilando red...
_________________________________________________________________
Layer (type)                 Output Shape              Param #   
=================================================================
embedding_1 (Embedding)      (None, 11, 50)            2847350   
_________________________________________________________________
flatten_1 (Flatten)          (None, 550)               0         
_________________________________________________________________
dense_1 (Dense)              (None, 300)               165300    
_________________________________________________________________
activation_1 (Activation)    (None, 300)               0         
_________________________________________________________________
dense_2 (Dense)              (None, 116)               34916     
_________________________________________________________________
activation_2 (Activation)    (None, 116)               0         
=================================================================
Total params: 3,047,566.0
Trainable params: 3,047,566.0
Non-trainable params: 0.0
_________________________________________________________________
Entrenando...
Train on 56728 samples, validate on 42171 samples
Epoch 1/20
1s - loss: 1.1054 - acc: 0.7389 - val_loss: 0.6024 - val_acc: 0.8409
Epoch 2/20
1s - loss: 0.3968 - acc: 0.8928 - val_loss: 0.4989 - val_acc: 0.8660
…
