Cantidad de palabras consideradas: 56947
_________________________________________________________________
Layer (type)                 Output Shape              Param #   
=================================================================
embedding_1 (Embedding)      (None, 11, 150)           8542050   
_________________________________________________________________
flatten_1 (Flatten)          (None, 1650)              0         
_________________________________________________________________
dense_1 (Dense)              (None, 300)               495300    
_________________________________________________________________
activation_1 (Activation)    (None, 300)               0         
_________________________________________________________________
dense_2 (Dense)              (None, 10)                3010      
=================================================================
Total params: 9,040,360.0
Trainable params: 9,040,360.0
Non-trainable params: 0.0
_________________________________________________________________
Cargando casos de entrenamiento...
Cargando casos de prueba...
Train on 382982 samples, validate on 82232 samples
Epoch 1/1000
133s - loss: 0.0807 - acc: 0.0652 - val_loss: 0.0754 - val_acc: 0.0639
…
