Cargando casos de entrenamiento...
Cargando casos de prueba...
Compilando red...
_________________________________________________________________
Layer (type)                 Output Shape              Param #   
=================================================================
embedding_1 (Embedding)      (None, 11, 150)           8542050   
_________________________________________________________________
flatten_1 (Flatten)          (None, 1650)              0         
_________________________________________________________________
dense_1 (Dense)              (None, 300)               495300    
_________________________________________________________________
activation_1 (Activation)    (None, 300)               0         
_________________________________________________________________
dense_2 (Dense)              (None, 116)               34916     
_________________________________________________________________
activation_2 (Activation)    (None, 116)               0         
=================================================================
Total params: 9,072,266.0
Trainable params: 9,072,266.0
Non-trainable params: 0.0
_________________________________________________________________
Entrenando...
Train on 56728 samples, validate on 42171 samples
Epoch 1/20
3s - loss: 1.0472 - acc: 0.7357 - val_loss: 0.6850 - val_acc: 0.8132
Epoch 2/20
5s - loss: 0.4342 - acc: 0.8753 - val_loss: 0.5771 - val_acc: 0.8437
…
