Cantidad de palabras consideradas: 56947
_________________________________________________________________
Layer (type)                 Output Shape              Param #   
=================================================================
embedding_1 (Embedding)      (None, 11, 50)            2847350   
_________________________________________________________________
flatten_1 (Flatten)          (None, 550)               0         
_________________________________________________________________
dense_1 (Dense)              (None, 300)               165300    
_________________________________________________________________
activation_1 (Activation)    (None, 300)               0         
_________________________________________________________________
dense_2 (Dense)              (None, 16)                4816      
=================================================================
Total params: 3,017,466.0
Trainable params: 3,017,466.0
Non-trainable params: 0.0
_________________________________________________________________
Cargando casos de entrenamiento...
Cargando casos de prueba...
Train on 382982 samples, validate on 82232 samples
Epoch 1/1000
49s - loss: 0.0089 - acc: 0.0643 - val_loss: 0.0077 - val_acc: 0.0835
…
