Cantidad de palabras consideradas: 56947
____________________________________________________________________________________________________
Layer (type)                     Output Shape          Param #     Connected to                     
====================================================================================================
main_input (InputLayer)          (None, 50)            0                                            
____________________________________________________________________________________________________
aux_input (InputLayer)           (None, 50)            0                                            
____________________________________________________________________________________________________
embedding_2 (Embedding)          (None, 50, 150)       8542050                                      
____________________________________________________________________________________________________
embedding_1 (Embedding)          (None, 50, 5)         500                                          
____________________________________________________________________________________________________
concatenate_1 (Concatenate)      (None, 50, 155)       0                                            
____________________________________________________________________________________________________
conv1d_1 (Conv1D)                (None, 46, 300)       232800                                       
____________________________________________________________________________________________________
global_max_pooling1d_1 (GlobalMa (None, 300)           0                                            
____________________________________________________________________________________________________
dense_1 (Dense)                  (None, 300)           90300                                        
____________________________________________________________________________________________________
activation_1 (Activation)        (None, 300)           0                                            
____________________________________________________________________________________________________
dense_2 (Dense)                  (None, 13)            3913                                         
____________________________________________________________________________________________________
softmax_layer (Activation)       (None, 13)            0                                            
====================================================================================================
Total params: 8,869,563.0
Trainable params: 8,869,563.0
Non-trainable params: 0.0
____________________________________________________________________________________________________
Cargando casos de entrenamiento...
Cargando casos de prueba...
Entrenando...
…
