Cargando casos de entrenamiento...
Cargando casos de prueba...
Compilando red...
_________________________________________________________________
Layer (type)                 Output Shape              Param #   
=================================================================
embedding_1 (Embedding)      (None, 11, 150)           8542050   
_________________________________________________________________
flatten_1 (Flatten)          (None, 1650)              0         
_________________________________________________________________
dense_1 (Dense)              (None, 300)               495300    
_________________________________________________________________
activation_1 (Activation)    (None, 300)               0         
_________________________________________________________________
dense_2 (Dense)              (None, 11)                3311      
_________________________________________________________________
activation_2 (Activation)    (None, 11)                0         
=================================================================
Total params: 9,040,661.0
Trainable params: 9,040,661.0
Non-trainable params: 0.0
_________________________________________________________________
Entrenando...
Train on 64359 samples, validate on 82179 samples
Epoch 1/20
4s - loss: 0.8438 - acc: 0.7173 - val_loss: 0.6414 - val_acc: 0.7770
Epoch 2/20
8s - loss: 0.4132 - acc: 0.8569 - val_loss: 0.5808 - val_acc: 0.7990
…
