Cargando casos de prueba...
Compilando red...
_________________________________________________________________
Layer (type)                 Output Shape              Param #   
=================================================================
embedding_1 (Embedding)      (None, 11, 150)           8542050   
_________________________________________________________________
flatten_1 (Flatten)          (None, 1650)              0         
_________________________________________________________________
dense_1 (Dense)              (None, 300)               495300    
_________________________________________________________________
activation_1 (Activation)    (None, 300)               0         
_________________________________________________________________
dense_2 (Dense)              (None, 947)               285047    
_________________________________________________________________
activation_2 (Activation)    (None, 947)               0         
=================================================================
Total params: 9,322,397.0
Trainable params: 9,322,397.0
Non-trainable params: 0.0
_________________________________________________________________
Obteniendo metricas...
