supertag_all
20
Cargando casos de entrenamiento...
Cargando casos de prueba...
Compilando red...
_________________________________________________________________
Layer (type)                 Output Shape              Param #   
=================================================================
embedding_1 (Embedding)      (None, 11, 150)           8542050   
_________________________________________________________________
flatten_1 (Flatten)          (None, 1650)              0         
_________________________________________________________________
dense_1 (Dense)              (None, 300)               495300    
_________________________________________________________________
activation_1 (Activation)    (None, 300)               0         
_________________________________________________________________
dense_2 (Dense)              (None, 947)               285047    
_________________________________________________________________
activation_2 (Activation)    (None, 947)               0         
=================================================================
Total params: 9,322,397.0
Trainable params: 9,322,397.0
Non-trainable params: 0.0
_________________________________________________________________
Entrenando...
Train on 383527 samples, validate on 81826 samples
Epoch 1/20
35s - loss: 0.7024 - acc: 0.8306 - val_loss: 0.4730 - val_acc: 0.8817
Epoch 2/20
34s - loss: 0.3364 - acc: 0.9096 - val_loss: 0.4388 - val_acc: 0.8900
…
