Cargando embedding inicial...
_________________________________________________________________
Layer (type)                 Output Shape              Param #   
=================================================================
embedding_1 (Embedding)      (None, 11, 50)            2847350   
_________________________________________________________________
flatten_1 (Flatten)          (None, 550)               0         
_________________________________________________________________
dense_1 (Dense)              (None, 300)               165300    
_________________________________________________________________
activation_1 (Activation)    (None, 300)               0         
_________________________________________________________________
dense_2 (Dense)              (None, 13)                3913      
_________________________________________________________________
activation_2 (Activation)    (None, 13)                0         
=================================================================
Total params: 3,016,563.0
Trainable params: 3,016,563.0
Non-trainable params: 0.0
_________________________________________________________________
Cargando casos de entrenamiento...
Cargando casos de prueba...
Entrenando...
Train on 382982 samples, validate on 82232 samples
Epoch 1/200
9s - loss: 0.7075 - acc: 0.7098 - val_loss: 1.2395 - val_acc: 0.5433
…
