Cargando embedding inicial...
_________________________________________________________________
Layer (type)                 Output Shape              Param #   
=================================================================
embedding_1 (Embedding)      (None, 11, 300)           17084100  
_________________________________________________________________
flatten_1 (Flatten)          (None, 3300)              0         
_________________________________________________________________
dense_1 (Dense)              (None, 300)               990300    
_________________________________________________________________
activation_1 (Activation)    (None, 300)               0         
_________________________________________________________________
dense_2 (Dense)              (None, 25)                7525      
_________________________________________________________________
activation_2 (Activation)    (None, 25)                0         
=================================================================
Total params: 18,081,925.0
Trainable params: 18,081,925.0
Non-trainable params: 0.0
_________________________________________________________________
Cargando casos de entrenamiento...
Cargando casos de prueba...
Entrenando...
Train on 382982 samples, validate on 82232 samples
Epoch 1/200
39s - loss: 0.7340 - acc: 0.7127 - val_loss: 1.4148 - val_acc: 0.5246
…
