…
 0 0 0 0 0 0 0 0 0 0 0 0 0 0 0 0 0 0 0 0 0 0 0 0 0 0 0 0 0 0 0 0 0 0 0 0 0
 0 0 0 0 0 0 0 0 0 0 0 0 0 0 0 0 0 0 0 0 0 0 0 0 0 0 0 0 0 0 0 0 0 0 0 0 0
 0 0 0 0 0 0 0 0 0 0 0 0 0 0 0 0 0 0 0 0 0 0 0 0 0 0 0 0 0 0 0 0 0 0 0 0 0
 0 0 0 0 0 0 0 0 0 0 0 0 0 0]
Compilando red...
____________________________________________________________________________________________________
Layer (type)                     Output Shape          Param #     Connected to                     
====================================================================================================
main_input (InputLayer)          (None, 50)            0                                            
____________________________________________________________________________________________________
aux_input (InputLayer)           (None, 50)            0                                            
____________________________________________________________________________________________________
embedding_2 (Embedding)          (None, 50, 50)        2847350                                      
____________________________________________________________________________________________________
embedding_1 (Embedding)          (None, 50, 5)         500                                          
____________________________________________________________________________________________________
concatenate_1 (Concatenate)      (None, 50, 55)        0                                            
____________________________________________________________________________________________________
conv1d_1 (Conv1D)                (None, 46, 300)       82800                                        
____________________________________________________________________________________________________
global_max_pooling1d_1 (GlobalMa (None, 300)           0                                            
____________________________________________________________________________________________________
dense_1 (Dense)                  (None, 300)           90300                                        
____________________________________________________________________________________________________
activation_1 (Activation)        (None, 300)           0                                            
____________________________________________________________________________________________________
dense_2 (Dense)                  (None, 643)           193543                                       
____________________________________________________________________________________________________
softmax_layer (Activation)       (None, 643)           0                                            
====================================================================================================
Total params: 3,214,493.0
Trainable params: 3,214,493.0
Non-trainable params: 0.0
____________________________________________________________________________________________________
Entrenando...
Train on 187097 samples, validate on 40979 samples
Epoch 1/3
…
