Cargando embedding inicial...
Cantidad de palabras consideradas: 56947
_________________________________________________________________
Layer (type)                 Output Shape              Param #   
=================================================================
embedding_1 (Embedding)      (None, 11, 150)           8542050   
_________________________________________________________________
flatten_1 (Flatten)          (None, 1650)              0         
_________________________________________________________________
dense_1 (Dense)              (None, 300)               495300    
_________________________________________________________________
activation_1 (Activation)    (None, 300)               0         
_________________________________________________________________
dense_2 (Dense)              (None, 643)               193543    
_________________________________________________________________
activation_2 (Activation)    (None, 643)               0         
=================================================================
Total params: 9,230,893.0
Trainable params: 9,230,893.0
Non-trainable params: 0.0
_________________________________________________________________
Cargando casos de entrenamiento...
Cargando casos de prueba...
Entrenando...
Train on 192741 samples, validate on 42171 samples
Epoch 1/5
15s - loss: 0.7942 - acc: 0.8111 - val_loss: 0.5210 - val_acc: 0.8698
…
