Cargando casos de entrenamiento...
[0 0 0 0 0 0 0 0 0 0 1]
Cargando casos de prueba...
[1 0 0 0 0 0 0 0 0 0 0]
Compilando red...
____________________________________________________________________________________________________
Layer (type)                     Output Shape          Param #     Connected to                     
====================================================================================================
main_input (InputLayer)          (None, 50)            0                                            
____________________________________________________________________________________________________
aux_input (InputLayer)           (None, 50)            0                                            
____________________________________________________________________________________________________
embedding_2 (Embedding)          (None, 50, 150)       8542050                                      
____________________________________________________________________________________________________
embedding_1 (Embedding)          (None, 50, 5)         500                                          
____________________________________________________________________________________________________
concatenate_1 (Concatenate)      (None, 50, 155)       0                                            
____________________________________________________________________________________________________
conv1d_1 (Conv1D)                (None, 46, 300)       232800                                       
____________________________________________________________________________________________________
global_max_pooling1d_1 (GlobalMa (None, 300)           0                                            
____________________________________________________________________________________________________
dense_1 (Dense)                  (None, 300)           90300                                        
____________________________________________________________________________________________________
activation_1 (Activation)        (None, 300)           0                                            
____________________________________________________________________________________________________
dense_2 (Dense)                  (None, 11)            3311                                         
____________________________________________________________________________________________________
softmax_layer (Activation)       (None, 11)            0                                            
====================================================================================================
Total params: 8,868,961.0
Trainable params: 8,868,961.0
Non-trainable params: 0.0
____________________________________________________________________________________________________
Entrenando...
Train on 61474 samples, validate on 78535 samples
Epoch 1/20
…
