Cargando casos de entrenamiento...
Cargando casos de prueba...
Compilando red...
_________________________________________________________________
Layer (type)                 Output Shape              Param #   
=================================================================
embedding_1 (Embedding)      (None, 11, 150)           8542050   
_________________________________________________________________
flatten_1 (Flatten)          (None, 1650)              0         
_________________________________________________________________
dense_1 (Dense)              (None, 300)               495300    
_________________________________________________________________
activation_1 (Activation)    (None, 300)               0         
_________________________________________________________________
dense_2 (Dense)              (None, 9)                 2709      
_________________________________________________________________
activation_2 (Activation)    (None, 9)                 0         
=================================================================
Total params: 9,040,059.0
Trainable params: 9,040,059.0
Non-trainable params: 0.0
_________________________________________________________________
Entrenando...
Train on 74769 samples, validate on 82232 samples
Epoch 1/20
4s - loss: 0.3084 - acc: 0.9242 - val_loss: 0.2095 - val_acc: 0.9416
Epoch 2/20
7s - loss: 0.1174 - acc: 0.9649 - val_loss: 0.1860 - val_acc: 0.9481
…
