Cargando casos de entrenamiento...
Cargando casos de prueba...
Compilando red...
_________________________________________________________________
Layer (type)                 Output Shape              Param #   
=================================================================
embedding_1 (Embedding)      (None, 11, 50)            2847350   
_________________________________________________________________
flatten_1 (Flatten)          (None, 550)               0         
_________________________________________________________________
dense_1 (Dense)              (None, 300)               165300    
_________________________________________________________________
activation_1 (Activation)    (None, 300)               0         
_________________________________________________________________
dense_2 (Dense)              (None, 643)               193543    
_________________________________________________________________
activation_2 (Activation)    (None, 643)               0         
=================================================================
Total params: 3,206,193.0
Trainable params: 3,206,193.0
Non-trainable params: 0.0
_________________________________________________________________
Entrenando...
Train on 192741 samples, validate on 42171 samples
Epoch 1/20
12s - loss: 0.7673 - acc: 0.8281 - val_loss: 0.4587 - val_acc: 0.8850
Epoch 2/20
12s - loss: 0.2972 - acc: 0.9236 - val_loss: 0.4046 - val_acc: 0.8974
…
