Cargando casos de entrenamiento...
Cargando casos de prueba...
Compilando red...
_________________________________________________________________
Layer (type)                 Output Shape              Param #   
=================================================================
embedding_1 (Embedding)      (None, 11, 50)            2847350   
_________________________________________________________________
flatten_1 (Flatten)          (None, 550)               0         
_________________________________________________________________
dense_1 (Dense)              (None, 300)               165300    
_________________________________________________________________
activation_1 (Activation)    (None, 300)               0         
_________________________________________________________________
dense_2 (Dense)              (None, 299)               89999     
_________________________________________________________________
activation_2 (Activation)    (None, 299)               0         
=================================================================
Total params: 3,102,649.0
Trainable params: 3,102,649.0
Non-trainable params: 0.0
_________________________________________________________________
Entrenando...
Train on 383527 samples, validate on 81826 samples
Epoch 1/20
13s - loss: 0.6087 - acc: 0.8492 - val_loss: 0.4029 - val_acc: 0.8910
Epoch 2/20
14s - loss: 0.2664 - acc: 0.9244 - val_loss: 0.3833 - val_acc: 0.8961
…
