Cargando casos de entrenamiento...
Cargando casos de prueba...
Compilando red...
_________________________________________________________________
Layer (type)                 Output Shape              Param #   
=================================================================
embedding_1 (Embedding)      (None, 11, 150)           8542050   
_________________________________________________________________
flatten_1 (Flatten)          (None, 1650)              0         
_________________________________________________________________
dense_1 (Dense)              (None, 300)               495300    
_________________________________________________________________
activation_1 (Activation)    (None, 300)               0         
_________________________________________________________________
dense_2 (Dense)              (None, 11)                3311      
_________________________________________________________________
activation_2 (Activation)    (None, 11)                0         
=================================================================
Total params: 9,040,661.0
Trainable params: 9,040,661.0
Non-trainable params: 0.0
_________________________________________________________________
Entrenando...
Train on 382764 samples, validate on 82179 samples
Epoch 1/20
21s - loss: 0.5078 - acc: 0.8224 - val_loss: 0.3929 - val_acc: 0.8585
Epoch 2/20
20s - loss: 0.2480 - acc: 0.9126 - val_loss: 0.3777 - val_acc: 0.8712
…
