Cantidad de palabras consideradas: 56947
_________________________________________________________________
Layer (type)                 Output Shape              Param #   
=================================================================
embedding_1 (Embedding)      (None, 11, 50)            2847350   
_________________________________________________________________
flatten_1 (Flatten)          (None, 550)               0         
_________________________________________________________________
dense_1 (Dense)              (None, 300)               165300    
_________________________________________________________________
activation_1 (Activation)    (None, 300)               0         
_________________________________________________________________
dense_2 (Dense)              (None, 8)                 2408      
=================================================================
Total params: 3,015,058.0
Trainable params: 3,015,058.0
Non-trainable params: 0.0
_________________________________________________________________
Cargando casos de entrenamiento...
Cargando casos de prueba...
Train on 377280 samples, validate on 80991 samples
Epoch 1/1000
44s - loss: 0.0190 - acc: 0.1879 - val_loss: 0.0177 - val_acc: 0.2370
…
