Cargando casos de entrenamiento...
Cargando casos de prueba...
Compilando red...
_________________________________________________________________
Layer (type)                 Output Shape              Param #   
=================================================================
embedding_1 (Embedding)      (None, 11, 150)           8542050   
_________________________________________________________________
flatten_1 (Flatten)          (None, 1650)              0         
_________________________________________________________________
dense_1 (Dense)              (None, 300)               495300    
_________________________________________________________________
activation_1 (Activation)    (None, 300)               0         
_________________________________________________________________
dense_2 (Dense)              (None, 299)               89999     
_________________________________________________________________
activation_2 (Activation)    (None, 299)               0         
=================================================================
Total params: 9,127,349.0
Trainable params: 9,127,349.0
Non-trainable params: 0.0
_________________________________________________________________
Entrenando...
Train on 383527 samples, validate on 81826 samples
Epoch 1/20
24s - loss: 0.6538 - acc: 0.8329 - val_loss: 0.4518 - val_acc: 0.8779
Epoch 2/20
25s - loss: 0.3108 - acc: 0.9112 - val_loss: 0.3979 - val_acc: 0.8916
…
