Cantidad de palabras consideradas: 56947
____________________________________________________________________________________________________
Layer (type)                     Output Shape          Param #     Connected to                     
====================================================================================================
aux_input (InputLayer)           (None, 50)            0                                            
____________________________________________________________________________________________________
aux_input2 (InputLayer)          (None, 50)            0                                            
____________________________________________________________________________________________________
main_input (InputLayer)          (None, 50)            0                                            
____________________________________________________________________________________________________
embedding_1 (Embedding)          (None, 50, 5)         500                                          
____________________________________________________________________________________________________
embedding_2 (Embedding)          (None, 50, 5)         500                                          
____________________________________________________________________________________________________
embedding_3 (Embedding)          (None, 50, 50)        2847350                                      
____________________________________________________________________________________________________
concatenate_1 (Concatenate)      (None, 50, 10)        0                                            
____________________________________________________________________________________________________
concatenate_2 (Concatenate)      (None, 50, 60)        0                                            
____________________________________________________________________________________________________
conv1d_1 (Conv1D)                (None, 46, 300)       90300                                        
____________________________________________________________________________________________________
global_max_pooling1d_1 (GlobalMa (None, 300)           0                                            
____________________________________________________________________________________________________
dense_1 (Dense)                  (None, 300)           90300                                        
____________________________________________________________________________________________________
activation_1 (Activation)        (None, 300)           0                                            
____________________________________________________________________________________________________
dense_2 (Dense)                  (None, 17)            5117                                         
____________________________________________________________________________________________________
softmax_layer (Activation)       (None, 17)            0                                            
====================================================================================================
Total params: 3,034,067.0
Trainable params: 3,034,067.0
Non-trainable params: 0.0
____________________________________________________________________________________________________
____________________________________________________________________________________________________
Layer (type)                     Output Shape          Param #     Connected to                     
====================================================================================================
aux_input (InputLayer)           (None, 50)            0                                            
____________________________________________________________________________________________________
aux_input2 (InputLayer)          (None, 50)            0                                            
____________________________________________________________________________________________________
main_input (InputLayer)          (None, 50)            0                                            
____________________________________________________________________________________________________
embedding_1 (Embedding)          (None, 50, 5)         500                                          
____________________________________________________________________________________________________
embedding_2 (Embedding)          (None, 50, 5)         500                                          
____________________________________________________________________________________________________
embedding_3 (Embedding)          (None, 50, 50)        2847350                                      
____________________________________________________________________________________________________
concatenate_1 (Concatenate)      (None, 50, 10)        0                                            
____________________________________________________________________________________________________
concatenate_2 (Concatenate)      (None, 50, 60)        0                                            
____________________________________________________________________________________________________
conv1d_1 (Conv1D)                (None, 46, 300)       90300                                        
____________________________________________________________________________________________________
global_max_pooling1d_1 (GlobalMa (None, 300)           0                                            
____________________________________________________________________________________________________
dense_1 (Dense)                  (None, 300)           90300                                        
____________________________________________________________________________________________________
activation_1 (Activation)        (None, 300)           0                                            
____________________________________________________________________________________________________
dense_3 (Dense)                  (None, 25)            7525                                         
____________________________________________________________________________________________________
softmax_layer (Activation)       (None, 25)            0                                            
====================================================================================================
Total params: 3,036,475.0
Trainable params: 3,036,475.0
Non-trainable params: 0.0
____________________________________________________________________________________________________
____________________________________________________________________________________________________
Layer (type)                     Output Shape          Param #     Connected to                     
====================================================================================================
aux_input (InputLayer)           (None, 50)            0                                            
____________________________________________________________________________________________________
aux_input2 (InputLayer)          (None, 50)            0                                            
____________________________________________________________________________________________________
main_input (InputLayer)          (None, 50)            0                                            
____________________________________________________________________________________________________
embedding_1 (Embedding)          (None, 50, 5)         500                                          
____________________________________________________________________________________________________
embedding_2 (Embedding)          (None, 50, 5)         500                                          
____________________________________________________________________________________________________
embedding_3 (Embedding)          (None, 50, 50)        2847350                                      
____________________________________________________________________________________________________
concatenate_1 (Concatenate)      (None, 50, 10)        0                                            
____________________________________________________________________________________________________
concatenate_2 (Concatenate)      (None, 50, 60)        0                                            
____________________________________________________________________________________________________
conv1d_1 (Conv1D)                (None, 46, 300)       90300                                        
____________________________________________________________________________________________________
global_max_pooling1d_1 (GlobalMa (None, 300)           0                                            
____________________________________________________________________________________________________
dense_1 (Dense)                  (None, 300)           90300                                        
____________________________________________________________________________________________________
activation_1 (Activation)        (None, 300)           0                                            
____________________________________________________________________________________________________
dense_4 (Dense)                  (None, 12)            3612                                         
____________________________________________________________________________________________________
softmax_layer (Activation)       (None, 12)            0                                            
====================================================================================================
Total params: 3,032,562.0
Trainable params: 3,032,562.0
Non-trainable params: 0.0
____________________________________________________________________________________________________
____________________________________________________________________________________________________
Layer (type)                     Output Shape          Param #     Connected to                     
====================================================================================================
aux_input (InputLayer)           (None, 50)            0                                            
____________________________________________________________________________________________________
aux_input2 (InputLayer)          (None, 50)            0                                            
____________________________________________________________________________________________________
main_input (InputLayer)          (None, 50)            0                                            
____________________________________________________________________________________________________
embedding_1 (Embedding)          (None, 50, 5)         500                                          
____________________________________________________________________________________________________
embedding_2 (Embedding)          (None, 50, 5)         500                                          
____________________________________________________________________________________________________
embedding_3 (Embedding)          (None, 50, 50)        2847350                                      
____________________________________________________________________________________________________
concatenate_1 (Concatenate)      (None, 50, 10)        0                                            
____________________________________________________________________________________________________
concatenate_2 (Concatenate)      (None, 50, 60)        0                                            
____________________________________________________________________________________________________
conv1d_1 (Conv1D)                (None, 46, 300)       90300                                        
____________________________________________________________________________________________________
global_max_pooling1d_1 (GlobalMa (None, 300)           0                                            
____________________________________________________________________________________________________
dense_1 (Dense)                  (None, 300)           90300                                        
____________________________________________________________________________________________________
activation_1 (Activation)        (None, 300)           0                                            
____________________________________________________________________________________________________
dense_5 (Dense)                  (None, 643)           193543                                       
____________________________________________________________________________________________________
softmax_layer (Activation)       (None, 643)           0                                            
====================================================================================================
Total params: 3,222,493.0
Trainable params: 3,222,493.0
Non-trainable params: 0.0
____________________________________________________________________________________________________
____________________________________________________________________________________________________
Layer (type)                     Output Shape          Param #     Connected to                     
====================================================================================================
aux_input (InputLayer)           (None, 50)            0                                            
____________________________________________________________________________________________________
aux_input2 (InputLayer)          (None, 50)            0                                            
____________________________________________________________________________________________________
main_input (InputLayer)          (None, 50)            0                                            
____________________________________________________________________________________________________
embedding_1 (Embedding)          (None, 50, 5)         500                                          
____________________________________________________________________________________________________
embedding_2 (Embedding)          (None, 50, 5)         500                                          
____________________________________________________________________________________________________
embedding_3 (Embedding)          (None, 50, 50)        2847350                                      
____________________________________________________________________________________________________
concatenate_1 (Concatenate)      (None, 50, 10)        0                                            
____________________________________________________________________________________________________
concatenate_2 (Concatenate)      (None, 50, 60)        0                                            
____________________________________________________________________________________________________
conv1d_1 (Conv1D)                (None, 46, 300)       90300                                        
____________________________________________________________________________________________________
global_max_pooling1d_1 (GlobalMa (None, 300)           0                                            
____________________________________________________________________________________________________
dense_1 (Dense)                  (None, 300)           90300                                        
____________________________________________________________________________________________________
activation_1 (Activation)        (None, 300)           0                                            
____________________________________________________________________________________________________
dense_6 (Dense)                  (None, 500)           150500                                       
____________________________________________________________________________________________________
activation_2 (Activation)        (None, 500)           0                                            
____________________________________________________________________________________________________
dense_7 (Dense)                  (None, 33)            16533                                        
____________________________________________________________________________________________________
softmax_layer (Activation)       (None, 33)            0                                            
====================================================================================================
Total params: 3,195,983.0
Trainable params: 3,195,983.0
Non-trainable params: 0.0
____________________________________________________________________________________________________
Cargando casos de entrenamiento...
--> NER...
--> Chunking...
--> POS...
…
