Cargando embedding inicial...
_________________________________________________________________
Layer (type)                 Output Shape              Param #   
=================================================================
embedding_1 (Embedding)      (None, 11, 150)           8542050   
_________________________________________________________________
flatten_1 (Flatten)          (None, 1650)              0         
_________________________________________________________________
dense_1 (Dense)              (None, 300)               495300    
_________________________________________________________________
activation_1 (Activation)    (None, 300)               0         
_________________________________________________________________
dense_2 (Dense)              (None, 17)                5117      
_________________________________________________________________
activation_2 (Activation)    (None, 17)                0         
=================================================================
Total params: 9,042,467.0
Trainable params: 9,042,467.0
Non-trainable params: 0.0
_________________________________________________________________
_________________________________________________________________
Layer (type)                 Output Shape              Param #   
=================================================================
embedding_1 (Embedding)      (None, 11, 150)           8542050   
_________________________________________________________________
flatten_2 (Flatten)          (None, 1650)              0         
_________________________________________________________________
dense_1 (Dense)              (None, 300)               495300    
_________________________________________________________________
activation_3 (Activation)    (None, 300)               0         
_________________________________________________________________
dense_3 (Dense)              (None, 25)                7525      
_________________________________________________________________
activation_4 (Activation)    (None, 25)                0         
=================================================================
Total params: 9,044,875.0
Trainable params: 9,044,875.0
Non-trainable params: 0.0
_________________________________________________________________
_________________________________________________________________
Layer (type)                 Output Shape              Param #   
=================================================================
embedding_1 (Embedding)      (None, 11, 150)           8542050   
_________________________________________________________________
flatten_3 (Flatten)          (None, 1650)              0         
_________________________________________________________________
dense_1 (Dense)              (None, 300)               495300    
_________________________________________________________________
activation_5 (Activation)    (None, 300)               0         
_________________________________________________________________
dense_4 (Dense)              (None, 12)                3612      
_________________________________________________________________
activation_6 (Activation)    (None, 12)                0         
=================================================================
Total params: 9,040,962.0
Trainable params: 9,040,962.0
Non-trainable params: 0.0
_________________________________________________________________
_________________________________________________________________
Layer (type)                 Output Shape              Param #   
=================================================================
embedding_1 (Embedding)      (None, 11, 150)           8542050   
_________________________________________________________________
flatten_4 (Flatten)          (None, 1650)              0         
_________________________________________________________________
dense_1 (Dense)              (None, 300)               495300    
_________________________________________________________________
activation_7 (Activation)    (None, 300)               0         
_________________________________________________________________
dense_5 (Dense)              (None, 643)               193543    
_________________________________________________________________
activation_8 (Activation)    (None, 643)               0         
=================================================================
Total params: 9,230,893.0
Trainable params: 9,230,893.0
Non-trainable params: 0.0
_________________________________________________________________
_________________________________________________________________
Layer (type)                 Output Shape              Param #   
=================================================================
embedding_1 (Embedding)      (None, 11, 150)           8542050   
_________________________________________________________________
flatten_5 (Flatten)          (None, 1650)              0         
_________________________________________________________________
dense_1 (Dense)              (None, 300)               495300    
_________________________________________________________________
activation_9 (Activation)    (None, 300)               0         
_________________________________________________________________
dense_6 (Dense)              (None, 947)               285047    
_________________________________________________________________
activation_10 (Activation)   (None, 947)               0         
=================================================================
Total params: 9,322,397.0
Trainable params: 9,322,397.0
Non-trainable params: 0.0
_________________________________________________________________
Cargando casos de entrenamiento...
Cargando casos de prueba...
Entrenando...
Iteracion: 0
NER
Train on 382982 samples, validate on 82232 samples
Epoch 1/1
128s - loss: 0.1540 - acc: 0.9603 - val_loss: 0.1552 - val_acc: 0.9623
…
