Cargando casos de entrenamiento...
Cargando casos de prueba...
Compilando red...
_________________________________________________________________
Layer (type)                 Output Shape              Param #   
=================================================================
embedding_1 (Embedding)      (None, 11, 50)            2847350   
_________________________________________________________________
flatten_1 (Flatten)          (None, 550)               0         
_________________________________________________________________
dense_1 (Dense)              (None, 300)               165300    
_________________________________________________________________
activation_1 (Activation)    (None, 300)               0         
_________________________________________________________________
dense_2 (Dense)              (None, 643)               193543    
_________________________________________________________________
activation_2 (Activation)    (None, 643)               0         
=================================================================
Total params: 3,206,193.0
Trainable params: 3,206,193.0
Non-trainable params: 0.0
_________________________________________________________________
Entrenando...
Train on 56728 samples, validate on 42171 samples
Epoch 1/20
3s - loss: 1.2966 - acc: 0.7331 - val_loss: 0.6969 - val_acc: 0.8388
Epoch 2/20
3s - loss: 0.4818 - acc: 0.8864 - val_loss: 0.5762 - val_acc: 0.8628
…
